lenh(xAI)/eeg_cnn_model_weights.pth (torch, 226087 bytes, 14 tensors)

conv1.weight f4 [64, 40, 5]
0	0xbd340d30	-0.04395789
1	0x3d1e10bf	0.03859019
2	0x3d7a6946	0.061135553
3	0x3d2009e8	0.039071947
4	0x3cf970e3	0.030449336
5	0xbd5c789e	-0.053825967
6	0x3d83cb32	0.06435241
7	0xbd4c629a	-0.04989872
8	0xbbd89bf5	-0.0066103884
9	0x3d84268b	0.06452664
10	0xbbf6b4f5	-0.007528896
11	0x3d543b47	0.051814344
12	0x3d06c231	0.03290004
13	0xbd21aaf6	-0.03946968
14	0x3d53f075	0.05174299
15	0x3cbfdc8b	0.023420593
16	0xbb4ee781	-0.0031571093
17	0x3cb62cf0	0.022238225
18	0x3d5ff99c	0.054681405
19	0x3d5b8d8c	0.053601786
20	0xbabbd9e3	-0.0014331903
21	0xbd2da405	-0.04239275
22	0x3c94ee73	0.018180108
23	0x3bfdb0ca	0.007742022
24	0xbd0be8ca	-0.03415755
25	0x3d1ec8b0	0.03876561
26	0xbd3aa168	-0.045564085
27	0x3c79cf4a	0.0152471755
28	0xbb9b96bb	-0.004748193
29	0xbd62db2c	-0.0553848
30	0xbc107957	-0.008817992
31	0x3d09a1db	0.033601623
32	0xbd7c05fc	-0.061529145
33	0xbd56b41a	-0.052417852
34	0xbd16e4db	-0.036839347
35	0x3ce29c4b	0.027662417
36	0xbd0b4d4f	-0.034009274
37	0x3d609281	0.054827217
38	0xbc050d6a	-0.008120874
39	0xbd3438bc	-0.04399942
40	0x3cc378dd	0.023861343
41	0xbd857e03	-0.065181755
42	0xbc00df10	-0.007865682
43	0x3c971622	0.018443171
44	0x3d55194c	0.052026078
45	0xbd3f7c09	-0.04674915
46	0x3d5a57e7	0.053306486
47	0x3d8ce203	0.06879046
48	0x3d4d2012	0.050079413
49	0xbd4a86b7	-0.04944488
50	0x3d86be4a	0.065792635
51	0xbd7697a3	-0.060203206
52	0x3cfaa1c8	0.030594721
53	0xbd85b120	-0.065279245
54	0x3c687f57	0.014190516
55	0xbd8335ee	-0.06406771
56	0x3c08e25c	0.0083547495
57	0xbd7b8e74	-0.06141515
58	0xbc5172e8	-0.012783743
59	0x3ca9b8d9	0.020718025
60	0xbb30cbc8	-0.0026976932
61	0x3d6b0963	0.057382
62	0xbd5aff99	-0.053466413
63	0x3d7177b0	0.058952034
64	0xbd8a39e7	-0.06749325
65	0x3d3c75cc	0.046010777
66	0x3d1f2185	0.038850326
67	0x3d4fe06f	0.050751146
68	0xbd865470	-0.06559074
69	0xbd4a1d09	-0.049344096
70	0x3c22b8c1	0.009931744
71	0xbd498dd6	-0.04920753
72	0x3ad46c6f	0.0016206632
73	0x3ca3f37f	0.020013569
74	0xbd8627f6	-0.06550591
75	0xbd73fc6f	-0.05956691
76	0x3cb8a856	0.022541206
77	0x3ce607db	0.028079918
78	0x3d726558	0.05917868
79	0xbc679155	-0.014133771
80	0x3d01fc51	0.03173477
81	0x3d232b5c	0.039836273
82	0x3d6e38e0	0.05815971
83	0xbc83b664	-0.016078182
84	0x3d7f6598	0.062352747
85	0xbd932c8f	-0.07186233
86	0xbd693465	-0.056934733
87	0xbd2b20fc	-0.041779503
88	0xbcd7bca5	-0.02633507
89	0xbd6502ee	-0.055910997
90	0xbd77d64b	-0.0605071
91	0x3d2e6da0	0.042585015
92	0xbd736802	-0.05942536
93	0xbbc8119b	-0.0061056144
94	0x3bb79a76	0.00560313
95	0xbc1b60c7	-0.009483523
96	0x3c9281f5	0.017884234
97	0xbc0cf30e	-0.008602871
98	0xbd53bcee	-0.05169385
99	0xbd0e6fcb	-0.034774583
100	0xbbe84933	-0.007088804
101	0x3d837606	0.064189956
102	0xbd57c4d7	-0.052677955
103	0xbd81f14d	-0.063448526
104	0xbd3dd883	-0.04634906
105	0x3cd83ec7	0.026397122
106	0x3c5a7eff	0.013335942
107	0xbcc2422b	-0.023713192
108	0xbd4bb0f3	-0.0497293
109	0xbca53a77	-0.02016948
110	0x3d145f3e	0.036223643
111	0x3d955dcd	0.07293282
112	0xbbe154ed	-0.006876579
113	0xbd3099c8	-0.043115407
114	0x3d9ad24f	0.075596444
115	0x3d75c89f	0.06000578
116	0xbd91fd22	-0.071283594
117	0x3cbb2977	0.02284692
118	0xbcf481f3	-0.02984712
119	0xbb92728f	-0.004469223
120	0x3d997393	0.07492747
121	0x3d6b7b1c	0.057490453
122	0xbcc49b8b	-0.02399995
123	0x3d72438f	0.05914646
124	0x3bfbc927	0.0076838913
125	0x3cc811a5	0.024422476
126	0xbd87c7a7	-0.066298775
127	0x3beb2e0c	0.00717712
128	0xbcb4789c	-0.022030167
129	0x3ce000e1	0.02734417
130	0x3d0d0a33	0.034433555
131	0x3d1d35c0	0.038381338
132	0x3d0f0825	0.034919877
133	0xbd557682	-0.05211497
134	0xbc150059	-0.009094321
135	0x3d6adfa3	0.057342183
136	0xbd4de6fa	-0.050269105
137	0xbcfbd72c	-0.03074225
138	0xbd1fc1b1	-0.039003078
139	0x3d6a4456	0.057194076
140	0x3c268a22	0.010164769
141	0x3c9496a8	0.018138245
142	0x3d908318	0.07056254
143	0x3c61c55c	0.013779964
144	0xbd563e7e	-0.05230569
145	0x3da05cbe	0.07830189
146	0x3d01a15b	0.03164802
147	0x3c8e41f4	0.017365433
148	0x3d01c654	0.03168328
149	0x3d0d7ec4	0.03454472
150	0x3d5b8e82	0.053602703
151	0x3d2435bf	0.04009032
152	0x3d37c7a0	0.04486811
153	0xbb933147	-0.0044919583
154	0xbd6eb384	-0.05827667
155	0x3d39cf75	0.045363862
156	0x3c8b2889	0.016987102
157	0x3c5ee735	0.013604929
158	0x3d4bbcdb	0.049740653
159	0x3d965a11	0.073413976
160	0x3d3f45e0	0.046697497
161	0xbd4bdd9a	-0.049771883
162	0x3b22e591	0.002485607
163	0x3d4491c4	0.047990575
164	0x3d9e0a4f	0.0771681
165	0x3d779d29	0.060452614
166	0x3d0dfacc	0.034663007
167	0x3d9d9929	0.076952286
168	0x3d22a16c	0.039704725
169	0xbd46ee73	-0.048567247
170	0x3d23d573	0.039998483
171	0x3d98256a	0.07429011
172	0x3bafb89d	0.005362584
173	0x3d8ef416	0.069801494
174	0xbd82194e	-0.06352483
175	0xbbecf83a	-0.0072317393
176	0x3cd5576f	0.026042668
177	0xbd2c968e	-0.042135768
178	0xbbc1c300	-0.0059131384
179	0xbc3df61e	-0.011594323
180	0x3c15ef9c	0.009151366
181	0xbd2ceebf	-0.042219874
182	0xbc86bca0	-0.016447365
183	0xbc797054	-0.015224535
184	0xbd7e8071	-0.06213421
185	0x3d363051	0.044479672
186	0xbd61befc	-0.055113778
187	0x3d2e4a84	0.042551532
188	0x3d33586d	0.0437855
189	0xbb96b6a1	-0.004599408
190	0xbc10d586	-0.00883997
191	0x3bc820e8	0.0061074384
192	0x3d1cbd31	0.038266364
193	0xbd6a2775	-0.057166535
194	0x3c41feab	0.011840503
195	0x3acb113d	0.0015492808
196	0x3d6ee529	0.058324013
197	0xbd4ad8a9	-0.04952303
198	0x3d12fb99	0.035884473
199	0xbceb5bfa	-0.028730381
200	0x3ccfb82a	0.025356371
201	0x3d44c462	0.048038848
202	0x3cf39774	0.029735304
203	0xbcdff81b	-0.027339986
204	0x3cbea428	0.023271635
205	0x3cbde78e	0.023181703
206	0x3ce57beb	0.02801319
207	0xbc98b830	-0.018642515
208	0xbd0e36bd	-0.03472017
209	0x3d5b62dc	0.053561077
210	0xbc7b439b	-0.015335943
211	0x3d967862	0.0734718
212	0xbd6af299	-0.057360265
213	0xbb2e24d9	-0.0026572256
214	0x3c45b80e	0.012067808
215	0x3d562f21	0.05229104
216	0xbc636011	-0.0138778845
217	0x3ba4f9e9	0.0050346744
218	0xbcd56902	-0.026051048
219	0xbd81be6c	-0.06335148
220	0xbd560872	-0.052254148
221	0x3d1eb909	0.038750682
222	0x3d694837	0.056953635
223	0x3d2fa53a	0.04288218
224	0x3d33ddac	0.043912575
225	0xbd3734f2	-0.044728227
226	0x3c6b92b3	0.014378238
227	0xbd6ca33d	-0.057772864
228	0x3c1255d8	0.0089316
229	0xbd8b7ea3	-0.068112634
230	0x3d0cc787	0.03436997
231	0x3cd26beb	0.025686225
232	0x3d367028	0.044540554
233	0x3d45fd4f	0.048337277
234	0xba9a8063	-0.001178753
235	0x3a9d3160	0.0011992864
236	0xbb5bd9b8	-0.0033546519
237	0x3d8c2f09	0.06844909
238	0xbd3cf49f	-0.046131726
239	0xbd2a3ed8	-0.04156384
240	0x3d21617a	0.0393996
241	0x3cdf1931	0.027233692
242	0xbd222684	-0.039587513
243	0xbcffcddc	-0.031226091
244	0x3d58860b	0.05286221
245	0x3d4392ae	0.047747307
246	0xbcde538a	-0.027139444
247	0xbc4e8b23	-0.012606415
248	0xbd30383c	-0.04302238
249	0x3ce4ceb5	0.027930597
250	0xbc3da471	-0.01157485
251	0xbc5ee014	-0.013603229
252	0xbc0faa3c	-0.008768614
253	0xbd63dfad	-0.055633236
254	0x3cd90056	0.026489418
255	0x3990cc6a	0.0002761812

conv1.bias f4 [64]
0	0x3c445384	0.011982802
1	0xbc704cba	-0.014666731
2	0x3bf0913f	0.0073415334
3	0x3d8648f8	0.065568864
4	0xbd3ce6f1	-0.04611868
5	0x3ce2646b	0.027635774
6	0x3cbd2278	0.023087725
7	0x3d570ce9	0.052502546
8	0x3c3709af	0.011171742
9	0xbcbe1cfb	-0.023207178
10	0x3d59a160	0.053132415
11	0x3bf3cb69	0.00744002
12	0xbc0ff442	-0.008786263
13	0xbd7f6791	-0.062354628
14	0x3d1a7aad	0.03771465
15	0x3d000d1b	0.0312625
16	0xbb0d3956	-0.0021549067
17	0xbd1ef250	-0.038805306
18	0x3d883f20	0.06652665
19	0x3d6cacbd	0.057781924
20	0x3d4e847d	0.05041932
21	0x3b6fecad	0.0036609576
22	0xbd889e81	-0.06670857
23	0x3d0fa59a	0.03507004
24	0x3cd61aa0	0.026135743
25	0xbd3727d8	-0.044715732
26	0xbc61911b	-0.013767506
27	0xbd636c02	-0.055522926
28	0xbd87b64c	-0.06626567
29	0xbb8cba64	-0.0042946804
30	0x3d74a95c	0.059731826
31	0x3bfdc4ec	0.007744422
32	0xbcadfe76	-0.0212395
33	0xbd14553f	-0.03621411
34	0xbc03d136	-0.008045485
35	0xbd57301c	-0.052536115
36	0xbd73c5c5	-0.05951478
37	0xbcb65bd2	-0.02226058
38	0xbbc50702	-0.0060127983
39	0xbd8d7043	-0.06906178
40	0x3c846d93	0.01616553
41	0x3c3ff907	0.011717088
42	0x3d3d0512	0.046147414
43	0x3d398367	0.04529133
44	0xbcf0f690	-0.029414445
45	0x3c912b70	0.017720908
46	0x3ccd9056	0.025093239
47	0x3cc03949	0.023464816
48	0x3d67de8c	0.05660872
49	0xbd42fdd8	-0.047605366
50	0x3d1e8f0d	0.038710643
51	0xbcf381c6	-0.029724967
52	0xbcba44f4	-0.022737958
53	0x3bf062f2	0.007336014
54	0xbd4e609c	-0.050385103
55	0x3d16f281	0.036852363
56	0x3cb5e7cf	0.022205262
57	0x3d1c8141	0.038209204
58	0x3d15357c	0.03642796
59	0x3cd88acd	0.026433373
60	0x3c4f8350	0.012665585
61	0xbd76a18d	-0.06021266
62	0xbbd17b9f	-0.0063929106
63	0x3d3f1091	0.04664666

bn1.weight f4 [64]
0	0x3f801ed5	1.0009409
1	0x3f7e5636	0.993503
2	0x3f7f3999	0.9969726
3	0x3f7dc429	0.9912744
4	0x3f7c8703	0.9864351
5	0x3f7fe0c9	0.9995237
6	0x3f801284	1.000565
7	0x3f7ed564	0.9954436
8	0x3f7f82f7	0.9980921
9	0x3f806f42	1.0033953
10	0x3f8000ac	1.0000205
11	0x3f811d80	1.0087128
12	0x3f80477e	1.0021818
13	0x3f7fd9c2	0.9994165
14	0x3f7f6663	0.99765605
15	0x3f808e40	1.0043411
16	0x3f7d3b13	0.98918265
17	0x3f7cb69f	0.9871616
18	0x3f7d8574	0.9903176
19	0x3f802b9e	1.0013311
20	0x3f810d83	1.0082248
21	0x3f804aa5	1.002278
22	0x3f803380	1.0015717
23	0x3f800a6f	1.0003184
24	0x3f81abb6	1.0130527
25	0x3f8009ed	1.0003029
26	0x3f7eeeb5	0.9958299
27	0x3f804a62	1.00227
28	0x3f80c5d6	1.0060375
29	0x3f80b45c	1.0055041
30	0x3f80831a	1.0040009
31	0x3f802106	1.0010078
32	0x3f811843	1.0085529
33	0x3f7f708a	0.99781096
34	0x3f8088e6	1.0041778
35	0x3f7fa87d	0.9986647
36	0x3f80dd55	1.0067545
37	0x3f813e16	1.0097072
38	0x3f7f6fb8	0.99779844
39	0x3f7d3463	0.9890806
40	0x3f801477	1.0006245
41	0x3f803d36	1.001868
42	0x3f81230b	1.0088819
43	0x3f7daf8e	0.99096
44	0x3f807f6e	1.0038888
45	0x3f7f48f3	0.99720687
46	0x3f7fb2f1	0.9988242
47	0x3f7bd3c8	0.9837003
48	0x3f7f4a53	0.99722785
49	0x3f80bdbb	1.0057901
50	0x3f8065a0	1.0031013
51	0x3f801e37	1.0009221
52	0x3f7f328d	0.9968651
53	0x3f8181d5	1.0117747
54	0x3f7eebcc	0.9957855
55	0x3f7e6b68	0.9938264
56	0x3f7f9a21	0.9984456
57	0x3f8028ee	1.0012491
58	0x3f8022d3	1.0010628
59	0x3f7e005d	0.99219304
60	0x3f7eb819	0.9949966
61	0x3f7f73e4	0.9978621
62	0x3f7e10cc	0.9924438
63	0x3f7fb635	0.998874

bn1.bias f4 [64]
0	0xb801bb3f	-3.0930383e-05
1	0xbc278e1d	-0.010226754
2	0xbb988d75	-0.004655535
3	0xbb8fd5c7	-0.004389498
4	0xbc0ba053	-0.008522111
5	0x3ba0ca02	0.0049068937
6	0xbb5bd67e	-0.0033544595
7	0xbbbe20fc	-0.005802272
8	0xbc167177	-0.009182326
9	0x3b5c4a99	0.00336138
10	0x3b736725	0.0037140336
11	0x3bc64e74	0.006051833
12	0x3a8819cf	0.0010383668
13	0x3a83bdb7	0.0010051046
14	0xb846eed4	-4.7429305e-05
15	0x3c118615	0.008882065
16	0xbbf81b22	-0.007571594
17	0xb9b48853	-0.00034433845
18	0xbc2480c6	-0.010040468
19	0x3b1a6fad	0.00235651
20	0x3b606042	0.0034237062
21	0xbb90cdbc	-0.0044190567
22	0x3b1e7365	0.0024177667
23	0x3b4b0928	0.00309808
24	0x3c54ddcc	0.012992334
25	0xbb8f11eb	-0.0043661497
26	0xb6bc5fab	-5.613974e-06
27	0x3bec61b1	0.007213794
28	0xbb25da60	-0.0025307164
29	0x3c0fd5ea	0.008779028
30	0x3ad2df34	0.0016088248
31	0xbb809eaa	-0.003925164
32	0x3a8df795	0.0010831231
33	0xba7c810f	-0.00096322683
34	0x3b3aee09	0.0028523228
35	0x3abf3dcc	0.001459056
36	0xbb4da19b	-0.0031376842
37	0x3c29e7f1	0.010370241
38	0x3b59ee14	0.0033253478
39	0xbbf571a7	-0.007490355
40	0x3b30398c	0.002688977
41	0x3b236c5c	0.0024936413
42	0x3c00d560	0.007863373
43	0xbbbb2e2b	-0.0057122908
44	0x3bbd7416	0.005781661
45	0x3b04abc7	0.002024399
46	0x3b45ac3b	0.0030162472
47	0xbc3e7c43	-0.011626306
48	0xba8a2973	-0.0010540917
49	0x3b570ae2	0.0032812883
50	0x3b875c06	0.004130843
51	0xba1d1221	-0.0005991776
52	0xb99770c5	-0.00028884984
53	0x3c5a11a1	0.013309867
54	0xbb436df4	-0.0029820176
55	0xbb9211d8	-0.0044576935
56	0x3b8886ee	0.0041664755
57	0x3b9f8fef	0.004869453
58	0x3b2cceef	0.002636846
59	0xbba7fe11	-0.0051267226
60	0xbc21eee2	-0.009883614
61	0xbc547f36	-0.012969783
62	0xb99abddc	-0.00029514625
63	0xb69b59c4	-4.62981e-06

bn1.running_mean f4 [64]
0	0xbe91fb0c	-0.28511846
1	0xbeed85a0	-0.4639101
2	0x3e075566	0.1321617
3	0xbe52f2ce	-0.20600435
4	0x3e2afcef	0.16698049
5	0xbe4d005e	-0.20019671
6	0x3e30cf03	0.17266469
7	0x3da9fe07	0.08300405
8	0xbea65ede	-0.32494253
9	0xbcb980c5	-0.02264441
10	0xbe16e21b	-0.1473469
11	0xbeb2d77f	-0.34930035
12	0xbec0c11e	-0.37647337
13	0xbe8394a6	-0.25699347
14	0xbd29d8c7	-0.0414665
15	0x3e344821	0.1760564
16	0x3ee85514	0.4537741
17	0xbea3f90d	-0.32025948
18	0x3ebc7cd4	0.36813986
19	0xbe9b1f0f	-0.30297133
20	0xbcf1f470	-0.029535502
21	0xbe1da89f	-0.15396355
22	0xbec16ece	-0.3777985
23	0xbd1fc669	-0.039007578
24	0x3deb2c0a	0.11483009
25	0x3dc1d8d5	0.094651856
26	0xbceedca8	-0.029157951
27	0x3eb01332	0.34389645
28	0xbf11f448	-0.5701337
29	0x3ed8c421	0.42337134
30	0x3f152ea8	0.58274317
31	0xbb795877	-0.0038047114
32	0x3e81d668	0.2535889
33	0xbeafad16	-0.34311742
34	0xbec65ed3	-0.3874422
35	0x3e88b554	0.26700842
36	0x3e4400e1	0.1914096
37	0x3de3cc74	0.11122981
38	0x3f159421	0.5842915
39	0x3ee32108	0.44361138
40	0x3dedd8fa	0.116136506
41	0x3e8d0b6b	0.27547774
42	0xbc4c3fa5	-0.012466346
43	0x3bc0448b	0.005867546
44	0xbe8d7408	-0.27627587
45	0xbdc73665	-0.09727172
46	0xbeae8381	-0.34084705
47	0xbddd89e9	-0.1081732
48	0xbd8735e4	-0.06602076
49	0xbeeadfed	-0.45873967
50	0xbc460fb4	-0.012088705
51	0x3e25f7cb	0.16207807
52	0x3cc225f9	0.023699747
53	0xbdd83a69	-0.10558016
54	0xbd6836d8	-0.056692928
55	0x3ea591eb	0.3233789
56	0xbe571e74	-0.2100771
57	0xbb47a4d1	-0.0030463228
58	0xbd616a6e	-0.05503314
59	0xbc87e278	-0.01658748
60	0xbe37c80c	-0.17947406
61	0xbe3eb026	-0.18621883
62	0xbe6a9e07	-0.22911845
63	0x3e0ce011	0.1375735

bn1.running_var f4 [64]
0	0x3ea5ef10	0.32408953
1	0x3ed4a4a5	0.41531864
2	0x3e2ca18b	0.16858499
3	0x3e14fdd9	0.1454996
4	0x3e53e284	0.20691878
5	0x3ec1dffb	0.37866196
6	0x3ec9fe4a	0.3945182
7	0x3e243e63	0.16039424
8	0x3e719277	0.23591028
9	0x3e745dd9	0.23863925
10	0x3e7f6a48	0.24942887
11	0x3ec927e5	0.3928825
12	0x3f3ffd68	0.7499604
13	0x3f388db7	0.7209124
14	0x3f6dd01c	0.92895675
15	0x3e5d227f	0.2159519
16	0x3e769fe1	0.24084426
17	0x3ea70c4b	0.32626566
18	0x3e4df3be	0.20112512
19	0x3e20a8c9	0.15689386
20	0x3edd7dfd	0.43260184
21	0x3e7d6b11	0.24747874
22	0x3e83d543	0.25748643
23	0x3ea0bfbc	0.31396282
24	0x3e074308	0.13209164
25	0x3e8c6456	0.274203
26	0x3e8c4ca4	0.27402222
27	0x3eaa2171	0.3322864
28	0x3e834008	0.2563479
29	0x3eda2d3f	0.42612645
30	0x3ebb9c24	0.36642563
31	0x3e7bfd2e	0.24608299
32	0x3e3ad0d6	0.18243727
33	0x3eeb1164	0.45911705
34	0x3e0378d1	0.12839057
35	0x3e925cbe	0.28586382
36	0x3e217b41	0.15769674
37	0x3edc5076	0.43030137
38	0x3e728b83	0.23686032
39	0x3eedfb9a	0.4648102
40	0x3ec6d04a	0.38830787
41	0x3f06ec8e	0.52704704
42	0x3f16e02f	0.58935827
43	0x3e452ddd	0.19255777
44	0x3f1921a2	0.59816945
45	0x3f54b345	0.83086044
46	0x3e8a91ba	0.27064306
47	0x3e9818dd	0.2970647
48	0x3e074146	0.13208494
49	0x3ed0abd4	0.40756094
50	0x3eac3762	0.33636004
51	0x3e7bd0c8	0.24591362
52	0x3f10d500	0.5657501
53	0x3e160179	0.14649
54	0x3e938dd8	0.28819156
55	0x3e4d45c4	0.20046145
56	0x3e591c6e	0.21202251
57	0x3e478f6f	0.1948831
58	0x3e2ef019	0.17083777
59	0x3e8676d0	0.26262522
60	0x3f19e7b0	0.6011915
61	0x3e9c1a0e	0.30488628
62	0x3e3793ce	0.17927477
63	0x3e644fb5	0.22296031

conv2.weight f4 [128, 64, 5]
0	0xbcc6b7d1	-0.024257572
1	0x3d197a73	0.037470292
2	0xbd09b18a	-0.03361658
3	0xbc317e2a	-0.0108333025
4	0xbd14a072	-0.036285825
5	0xbc932f5f	-0.017966924
6	0x3c873ea7	0.016509367
7	0x3d2be4dc	0.041966304
8	0x3d7ec94e	0.062203698
9	0x3d5479f5	0.05187412
10	0xbb9ff90e	-0.0048819846
11	0xbd407497	-0.04698619
12	0xbcc9d609	-0.024638193
13	0xbd382978	-0.044961423
14	0x3cb01c90	0.021497995
15	0xbcf74bb6	-0.030187469
16	0xbc8d2c59	-0.01723306
17	0x3d80b836	0.062851354
18	0x3cef1c0e	0.029188182
19	0x3d380b00	0.044932365
20	0x3b92e1a4	0.004482465
21	0xbd7465ed	-0.059667516
22	0x3cd213a9	0.02564414
23	0xbd09ee96	-0.0336748
24	0xbb463790	-0.003024552
25	0xbd2ae8fe	-0.041726105
26	0xbb0a7636	-0.0021127588
27	0xbd0db00e	-0.034591727
28	0xbd285aed	-0.04110234
29	0x3d19226b	0.03738634
30	0x3d1b2694	0.037878588
31	0xbd0f6bf1	-0.03501505
32	0xbb13fff3	-0.0022582978
33	0x3d2cd51d	0.04219543
34	0xbc74de1b	-0.014945532
35	0xbd159f10	-0.036528647
36	0xbc716d07	-0.014735467
37	0xbcc2edfb	-0.023795119
38	0xbc79e72d	-0.0152528705
39	0x3d486468	0.04892388
40	0xbc3c6912	-0.01149966
41	0xbca0e2a2	-0.019639317
42	0x3c3133ba	0.010815555
43	0xbd270a73	-0.04078145
44	0x3bae442b	0.005318185
45	0xbd4476e6	-0.047964953
46	0xbb496bb7	-0.003073437
47	0xbcb0c50c	-0.021578334
48	0xbcd2455a	-0.025667835
49	0xbcd31f09	-0.025771635
50	0xbd401f8a	-0.046905078
51	0x3a8b8d03	0.0010646883
52	0x3c0f5392	0.008747952
53	0xbc0055d5	-0.007832964
54	0x3cd4a3f8	0.025957093
55	0xbd3d3793	-0.046195578
56	0x3d5b985e	0.053612106
57	0x3c820ee0	0.015876234
58	0xbcae664b	-0.021289011
59	0x3ccadc8f	0.024763374
60	0x3d2cc9e1	0.042184714
61	0xbbf35730	-0.007426165
62	0xbd0c6dbb	-0.034284335
63	0x3d6b1be3	0.05739964
64	0xbb5d56b8	-0.0033773612
65	0xbc524207	-0.012833125
66	0xbb7db9b5	-0.0038715426
67	0xbd1d4636	-0.038397036
68	0xbd132ed5	-0.035933334
69	0x3d6f19bd	0.058374155
70	0x3cb0489f	0.021519003
71	0xbb20adcd	-0.0024517656
72	0xbd221646	-0.039572023
73	0x3d4295de	0.047506206
74	0x3bad7b94	0.0052942727
75	0x3bc7e674	0.00610047
76	0x3cf3a4d9	0.029741691
77	0x3c89fdef	0.016844718
78	0x3d10b5d8	0.03532967
79	0x3d168af8	0.036753625
80	0xbd08bd68	-0.033383757
81	0xbca13d6b	-0.019682607
82	0xbc22c74c	-0.009935211
83	0xbbf456d8	-0.0074566416
84	0xbd3c4eca	-0.045973577
85	0xbd1b84f4	-0.03796859
86	0x3c377f33	0.01119976
87	0xbd4db86c	-0.050224707
88	0x3d3b85f3	0.04578204
89	0xbd6dc252	-0.058046646
90	0x3cc670e4	0.024223752
91	0xbc1094ee	-0.00882457
92	0x3d0d1b22	0.034449704
93	0x3ca9cc50	0.020727307
94	0xbd35f37d	-0.04442166
95	0xbc2bb9b0	-0.010481283
96	0xbc1bee5f	-0.009517281
97	0xbd0da248	-0.03457859
98	0x3d1df83b	0.03856681
99	0x3d626c31	0.05527896
100	0xbd59a256	-0.05313333
101	0x3d1299b6	0.03579112
102	0xbc06647a	-0.008202666
103	0x3c9370d3	0.017998135
104	0xbcf77bea	-0.030210454
105	0x3d247d46	0.040158533
106	0x3d07f508	0.033192664
107	0x3cf7f04a	0.030265946
108	0xbcb8ccd1	-0.022558602
109	0x3d2c391b	0.042046648
110	0xbcdbb60a	-0.026820201
111	0xbbcd8f69	-0.0062731993
112	0x3d73be65	0.059507746
113	0x3d1c7e10	0.03820616
114	0xbd28937c	-0.041156277
115	0x3c0db049	0.008647987
116	0x3c415a11	0.011801259
117	0x3d026b65	0.0318407
118	0x3d2ad089	0.04170278
119	0xbcfd7647	-0.030940188
120	0x3d0403a6	0.032230042
121	0x3d26475f	0.04059541
122	0x3bec42d7	0.0072101164
123	0xb94cb533	-0.00019522458
124	0xbd1a3c4b	-0.037655156
125	0xbd40732a	-0.04698483
126	0xbc6d8f62	-0.014499517
127	0xbc2bfd50	-0.010497406
128	0x3cf1e8f2	0.029530022
129	0xbc07fcdc	-0.0083000325
130	0xbd07dcc4	-0.033169523
131	0x3d5a6ec2	0.053328283
132	0xbb1a67f0	-0.0023560487
133	0xbbdf4a73	-0.006814295
134	0x3d7e9da3	0.062162053
135	0x3d170253	0.03686745
136	0x3bef8c21	0.007310406
137	0xbc558a89	-0.013033518
138	0xbd4d2c67	-0.050091173
139	0xbbc5c14d	-0.006035006
140	0x3d31e748	0.043433458
141	0x3cb42c52	0.02199379
142	0x3c4477a7	0.011991418
143	0x3ccfeede	0.025382455
144	0x3c16ae0a	0.009196768
145	0xbd33500a	-0.043777503
146	0xbd0b504c	-0.034012124
147	0xbc4e751e	-0.012601165
148	0xbbb51789	-0.0055264872
149	0x3bde8897	0.006791185
150	0xbd44654e	-0.047948174
151	0x3cf3a01a	0.029739428
152	0xbc0150b0	-0.007892773
153	0x3c7828c4	0.015146438
154	0xbd6a8ddd	-0.057264198
155	0x3b355f64	0.0027675265
156	0xbd33402f	-0.043762382
157	0x3d15b21c	0.03654681
158	0xbba67e25	-0.0050809556
159	0x3c402fef	0.011730178
160	0xbc498649	-0.0123000825
161	0x3d0be9ca	0.034158505
162	0xbd107e21	-0.035276536
163	0x3cade580	0.021227598
164	0xbb7980e6	-0.0038071214
165	0x3d16e3c5	0.03683831
166	0x3d60f994	0.054925516
167	0xbc829ff8	-0.01594542
168	0x3cce61fc	0.025193207
169	0xbcc9ec1f	-0.024648724
170	0x3d22b17f	0.039720055
171	0xbc486502	-0.012231113
172	0xbbcc0bb6	-0.006226982
173	0xbcc418d0	-0.023937613
174	0xbd8508ea	-0.06495841
175	0xbc95825c	-0.018250637
176	0xbba8e02a	-0.0051536756
177	0x3ca437f2	0.020046208
178	0xbcbbc61f	-0.02292162
179	0x3d0863f8	0.033298463
180	0xbd770ef7	-0.060317006
181	0xbcc50ce0	-0.02405399
182	0xbd313f92	-0.043273516
183	0xbd401633	-0.04689617
184	0x3cdfc694	0.02731637
185	0xbd6067ed	-0.05478661
186	0xbd5eff0d	-0.054442454
187	0x3ce96f7a	0.028495539
188	0xbc055654	-0.008138258
189	0x3ce38a91	0.027776035
190	0x3b49be03	0.0030783422
191	0x3b6c5518	0.0036061462
192	0x3cf8ca9e	0.030370053
193	0xbd7bf1e8	-0.061509997
194	0xbbcd9db0	-0.0062749013
195	0xbcc7afac	-0.024375759
196	0xbd62b7a0	-0.0553509
197	0xbc89ab03	-0.016805178
198	0x3d3dfc0c	0.04638295
199	0x3d3140d1	0.043274704
200	0xbcbf102c	-0.023323141
201	0x3ced8d1a	0.028997947
202	0xbd1c0a7b	-0.038095932
203	0x3d615441	0.05501199
204	0x3bc371a4	0.0059644748
205	0xbc89510c	-0.016762279
206	0x3c3cb46b	0.011517624
207	0xbc14e570	-0.009087905
208	0x3d05bc6f	0.032650407
209	0x3cc00bc9	0.02344312
210	0x3cb648f0	0.022251576
211	0xbafaf240	-0.0019145682
212	0xbcdcdbd4	-0.026960291
213	0xbd4cb941	-0.04998136
214	0xbd1406c1	-0.036139254
215	0x3d45803c	0.048217997
216	0x3cdcf15e	0.026970562
217	0xbc3583e1	-0.011078806
218	0x3c1e1799	0.009649181
219	0xbcf553a0	-0.029947102
220	0xbd4cc685	-0.04999401
221	0x3d1cebe9	0.03831092
222	0xbc70f2df	-0.0147063425
223	0xbd43483f	-0.04767632
224	0x3c416266	0.011803245
225	0xbd10fd64	-0.035397902
226	0x3c87189d	0.016491229
227	0xbb4d21bc	-0.0031300625
228	0xbc8a025e	-0.016846832
229	0x3d047d3a	0.032345988
230	0x3d346f4e	0.04405146
231	0xbca93295	-0.020654002
232	0xbd254e41	-0.040357832
233	0x3ac5ea8a	0.0015099805
234	0xbcdd4bdc	-0.027013712
235	0x3ce599ac	0.028027378
236	0xbd6e3807	-0.0581589
237	0x3b9c4f35	0.0047701844
238	0xbd03cc4d	-0.03217726
239	0x3d2d02be	0.042238943
240	0x3cd88d65	0.02643461
241	0x3baa216d	0.005191973
242	0xbbb658d3	-0.005564788
243	0xbb9dead7	-0.004819255
244	0xbc14d926	-0.009084975
245	0x3d1bb14f	0.03801089
246	0x3b840dfa	0.0040299864
247	0xbba0ba51	-0.004905023
248	0x3d310768	0.043219954
249	0x3cefb580	0.02926135
250	0xbc9deecf	-0.019278912
251	0x3a8155f4	0.0009867535
252	0xbd253e47	-0.040342595
253	0x3d1b7260	0.037950873
254	0x3d639761	0.055564288
255	0x3bf9dd0b	0.0076252273

conv2.bias f4 [128]
0	0x3bb43351	0.0054992815
1	0x3b43f47b	0.002990036
2	0x3b3c297c	0.002871125
3	0x3c941615	0.018076936
4	0x3d006237	0.031343665
5	0xbc874a3f	-0.016514895
6	0xbd62b8f7	-0.055352177
7	0x3cc138a7	0.023586584
8	0xbd60c88c	-0.054878756
9	0xbceb89ab	-0.028752169
10	0xbcf20660	-0.029544055
11	0x3b197efe	0.002342164
12	0x3bd11a75	0.0063813278
13	0xbcf256e7	-0.029582454
14	0xbd3d3c1b	-0.0461999
15	0x3d059ac9	0.032618318
16	0xbcef41c9	-0.029206173
17	0xbd62d2da	-0.055376865
18	0xbd55c961	-0.052194003
19	0x3d20f688	0.03929761
20	0x3d039567	0.032124903
21	0x3ce2a827	0.027668072
22	0x3d58bf59	0.05291686
23	0xbd423cd2	-0.047421284
24	0x3d284c94	0.041088656
25	0x3c877957	0.016537352
26	0x3d1ddb37	0.038539138
27	0x3bc80ac0	0.006104797
28	0x3d2f502a	0.04280106
29	0x3cc7dfac	0.024398647
30	0xbc4a3863	-0.012342545
31	0x3d3cf9ed	0.046136785
32	0x3d0c89ba	0.034311034
33	0x3cb743d2	0.022371206
34	0x3d3e7012	0.046493597
35	0x3c53e6c5	0.012933438
36	0x3d34924c	0.044084832
37	0xbbda2231	-0.006656908
38	0x3d5f3210	0.054491103
39	0xbbf09691	-0.0073421677
40	0x3cb3621c	0.021897368
41	0x3d1d2dc7	0.038373735
42	0xbc983861	-0.018581571
43	0x3ca1a2b2	0.0197309
44	0xbd20280a	-0.039100684
45	0xbc2621d3	-0.0101399
46	0xbd09859b	-0.03357468
47	0x3cdb9099	0.026802348
48	0x3c5b8fc5	0.013400977
49	0x3cef9a1a	0.029248286
50	0x3c993957	0.0187041
51	0x3c9f5825	0.01945121
52	0xbcb42024	-0.021987982
53	0xbc555f77	-0.013023249
54	0x3937dae2	0.0001753378
55	0x3c863a61	0.01638526
56	0xbd31fba4	-0.043452874
57	0x3b8ab1e9	0.0042326343
58	0x3d282ce0	0.04105842
59	0xbd11e984	-0.03562309
60	0x3cbf1aa1	0.023328127
61	0xbca52440	-0.020158887
62	0xb8001a46	-3.0542047e-05
63	0x3d658efd	0.056044567
64	0xbc153f5a	-0.0091093425
65	0xbd003ed6	-0.031309925
66	0x3ce48ee5	0.027900169
67	0x3d39d821	0.045372132
68	0x3d247b1d	0.040156472
69	0x3d501dc8	0.05080965
70	0xbc8b6e69	-0.017020421
71	0x3d6979bc	0.05700086
72	0xbcfb1ebc	-0.030654304
73	0x3d1d7b9c	0.03844796
74	0xbc5e7285	-0.013577108
75	0x3c69dafc	0.014273401
76	0x3d1c448d	0.038151313
77	0xbcd8cf15	-0.026465932
78	0x3cfdca17	0.030980153
79	0x3cd8a6b7	0.026446683
80	0x3d56f7fc	0.05248259
81	0xbc0031f4	-0.00782441
82	0x3d2c2898	0.0420309
83	0x3ce4834d	0.02789464
84	0xbcdeb547	-0.02718605
85	0x3b0bd62a	0.0021337369
86	0xbcf02a3c	-0.029317014
87	0x3d41392c	0.047173664
88	0xbd15a609	-0.036535297
89	0xbd4e1af2	-0.050318666
90	0xbd4965ab	-0.049169224
91	0x3d600c64	0.054699317
92	0x3c976918	0.01848273
93	0x3c9693dd	0.018381054
94	0xbd32f842	-0.04369379
95	0xbc269204	-0.010166649
96	0xbd222887	-0.03958943
97	0x3c39e212	0.011345403
98	0x3c25cbc4	0.010119382
99	0x3cca5eaf	0.024703352
100	0x3d5354a4	0.05159439
101	0x3cd33a24	0.02578456
102	0xbd505c7c	-0.05086945
103	0x3c1b6279	0.009483927
104	0xbc91cc99	-0.017797755
105	0x3c84cfb5	0.016212324
106	0x3cb9853d	0.02264654
107	0xbd025a8d	-0.031824637
108	0xbd32740a	-0.043567695
109	0xbd54afb6	-0.051925384
110	0xbbb2a64e	-0.005451954
111	0xbcdbbb56	-0.026822727
112	0xbd63ecdf	-0.05564582
113	0x3bd58db9	0.006517139
114	0x3be612ba	0.0070212753
115	0xbd5ee31c	-0.054415807
116	0x3d344c8a	0.044018306
117	0xbd20ede4	-0.03928937
118	0xbd5cc58c	-0.053899333
119	0x3b1d2d03	0.0023983128
120	0xbd1bafc9	-0.03800944
121	0xbca8ae70	-0.02059099
122	0x3d1ab00a	0.03776554
123	0x3d61d944	0.05513884
124	0x3d3a9560	0.04555261
125	0x3ce8ddaa	0.02842601
126	0xbbc6defb	-0.006069062
127	0xbd0d4dc2	-0.034497984

bn2.weight f4 [128]
0	0x3f7d9638	0.9905734
1	0x3f81bac0	1.0135117
2	0x3f7c8fa0	0.98656654
3	0x3f7f2693	0.99668235
4	0x3f807222	1.003483
5	0x3f800f22	1.0004618
6	0x3f7db4b6	0.9910387
7	0x3f7fec39	0.9996982
8	0x3f806b12	1.0032675
9	0x3f80d055	1.0063578
10	0x3f80f27f	1.0074004
11	0x3f7e7c56	0.9940847
12	0x3f7ffe9d	0.99997884
13	0x3f804acb	1.0022825
14	0x3f7f58ce	0.9974488
15	0x3f80acb8	1.005271
16	0x3f7ff92f	0.999896
17	0x3f7e50f9	0.99342304
18	0x3f7d24e1	0.988844
19	0x3f7eeae7	0.9957718
20	0x3f802992	1.0012686
21	0x3f7ea605	0.99472076
22	0x3f80d625	1.0065352
23	0x3f7d91b5	0.99050456
24	0x3f7fd3e7	0.9993271
25	0x3f7d88c2	0.990368
26	0x3f812437	1.0089177
27	0x3f80b917	1.0056485
28	0x3f822bbb	1.0169595
29	0x3f7fb59d	0.99886495
30	0x3f820bd2	1.0159857
31	0x3f7e430b	0.9932105
32	0x3f7f4bd2	0.9972507
33	0x3f7fcac8	0.99918795
34	0x3f7eae78	0.9948497
35	0x3f7fbc75	0.9989694
36	0x3f7cd8e6	0.9876846
37	0x3f8042e6	1.0020416
38	0x3f81a59e	1.0128667
39	0x3f812264	1.008862
40	0x3f811926	1.00858
41	0x3f804ed3	1.0024055
42	0x3f7e38f6	0.99305665
43	0x3f7fdbba	0.9994465
44	0x3f7fa91a	0.99867404
45	0x3f7e3692	0.9930202
46	0x3f814df7	1.0101918
47	0x3f80fea9	1.0077716
48	0x3f7f92e4	0.9983351
49	0x3f7ede65	0.995581
50	0x3f7f384b	0.9969527
51	0x3f7e72b4	0.99393773
52	0x3f809d67	1.0048035
53	0x3f7f0770	0.99620724
54	0x3f809466	1.0045288
55	0x3f7f633b	0.9976079
56	0x3f7e3bf8	0.99310255
57	0x3f7fadbe	0.99874485
58	0x3f819481	1.0123445
59	0x3f807a3a	1.00373
60	0x3f7f4e57	0.9972891
61	0x3f808f14	1.0043664
62	0x3f7cdf32	0.9877807
63	0x3f818a73	1.0120376
64	0x3f7f18ba	0.99647105
65	0x3f8004ca	1.0001462
66	0x3f7fd876	0.9993967
67	0x3f7e7fd4	0.994138
68	0x3f7ca880	0.9869461
69	0x3f7fcaa4	0.9991858
70	0x3f7f225a	0.9966179
71	0x3f7db8ce	0.99110115
72	0x3f7ead86	0.99483526
73	0x3f805c3c	1.0028148
74	0x3f7d6266	0.9897827
75	0x3f800c1d	1.0003697
76	0x3f7e5823	0.99353236
77	0x3f80546f	1.0025767
78	0x3f7e132c	0.99248004
79	0x3f800f66	1.0004699
80	0x3f802194	1.0010247
81	0x3f7f7e5f	0.998022
82	0x3f80e39d	1.0069462
83	0x3f815254	1.010325
84	0x3f8026d6	1.0011852
85	0x3f7cec40	0.9879799
86	0x3f7ea32f	0.9946775
87	0x3f80444c	1.0020843
88	0x3f800b8a	1.0003521
89	0x3f7e5858	0.9935355
90	0x3f7ebb84	0.99504876
91	0x3f7ff7d6	0.9998754
92	0x3f80bb86	1.0057228
93	0x3f80114d	1.000528
94	0x3f808b75	1.0042559
95	0x3f7d709f	0.9899997
96	0x3f7f1f5e	0.9965724
97	0x3f81af78	1.0131674
98	0x3f7e11ce	0.9924592
99	0x3f7ec141	0.9951363
100	0x3f80615b	1.002971
101	0x3f80860a	1.0040905
102	0x3f7efe68	0.99606943
103	0x3f7ee9a7	0.99575275
104	0x3f7f0883	0.9962236
105	0x3f80451b	1.0021089
106	0x3f7e6c2c	0.9938381
107	0x3f7ef0a7	0.99585956
108	0x3f80ef6c	1.0073066
109	0x3f80b655	1.0055643
110	0x3f7e4066	0.99317014
111	0x3f7ee277	0.9956431
112	0x3f7f9a8a	0.9984518
113	0x3f8011f8	1.0005484
114	0x3f8002de	1.0000875
115	0x3f801c01	1.0008546
116	0x3f802ce4	1.00137
117	0x3f81f2f6	1.0152271
118	0x3f7f9d80	0.998497
119	0x3f7efb8b	0.99602574
120	0x3f80298e	1.0012681
121	0x3f812c14	1.0091577
122	0x3f815cc1	1.0106431
123	0x3f7f1ac9	0.99650246
124	0x3f81554b	1.0104154
125	0x3f8174cd	1.011377
126	0x3f7e6f82	0.993889
127	0x3f7ce509	0.9878698

bn2.bias f4 [128]
0	0xbc052507	-0.008126504
1	0x3bfde42d	0.007748148
2	0xbc390f34	-0.011295129
3	0xbb024b28	-0.0019881222
4	0x3b242596	0.0025046817
5	0x3b343221	0.00274957
6	0xbc0c11fb	-0.008549209
7	0xbb628ba8	-0.0034568105
8	0x3bc5f418	0.006041061
9	0x3b9a224f	0.004703797
10	0x3b3f714f	0.0029211824
11	0xb994e7bd	-0.00028401418
12	0xb827b189	-3.9981245e-05
13	0x3a964c99	0.001146692
14	0xbb9caf3f	-0.004781633
15	0x3b20d8fb	0.0024543393
16	0x3b5be15f	0.003355108
17	0xbbd55641	-0.0065105264
18	0xbc2802bb	-0.010254557
19	0xbb37cc91	-0.0028045515
20	0x396fe0bc	0.00022876536
21	0xbb9b4870	-0.00473886
22	0x3bc4eb14	0.006009469
23	0xbbfc73f8	-0.0077042542
24	0xbb9b4783	-0.0047387495
25	0xbc09c890	-0.008409634
26	0x3c019d2d	0.007911009
27	0x3c2e8148	0.01065094
28	0x3c2dd3ca	0.0106095765
29	0xbbca634b	-0.0061763874
30	0x3c273e67	0.010207749
31	0xbc3361c4	-0.010948602
32	0xbbe87eb3	-0.007095182
33	0xba9063c3	-0.001101606
34	0xbbe0f2ec	-0.006864896
35	0x3b581f6b	0.003297771
36	0xbc23ed6e	-0.010005338
37	0x3ae92e2f	0.0017790253
38	0x3c3d1288	0.011540063
39	0x3c010e41	0.007876934
40	0x3aedc31a	0.001813981
41	0x39b18d1d	0.00033865208
42	0xbbdab0ae	-0.006673894
43	0xba0f6c2e	-0.0005471137
44	0xbb4aa2cd	-0.003091979
45	0xbc0105e1	-0.007874937
46	0x3c167574	0.009183276
47	0x3b947098	0.004530024
48	0xba99ed89	-0.0011743765
49	0xbb78ef08	-0.003798427
50	0xbc02f55a	-0.007993067
51	0xbc0c77eb	-0.008573513
52	0x3bfd1a4e	0.007724083
53	0xbaa329a2	-0.0012448321
54	0x3af34e5c	0.0018562782
55	0xbb51447e	-0.0031931694
56	0xbbe4777c	-0.0069722515
57	0x3b0b24b8	0.0021231603
58	0x3b8302bc	0.0039981287
59	0xba6f3da8	-0.0009126314
60	0xbb96901a	-0.004594815
61	0x3bf14d63	0.0073639615
62	0xbc223803	-0.00990105
63	0x3c319d6a	0.010840753
64	0xbc0dc646	-0.008653229
65	0xb980f194	-0.00024594052
66	0xb9c14b72	-0.0003686804
67	0xbb9c14f3	-0.0047632395
68	0xbc715661	-0.014730067
69	0x3a7cb9b8	0.00096407114
70	0xbc47e2ad	-0.01220004
71	0xbbc19433	-0.0059075593
72	0xbc00a34f	-0.007851436
73	0x3bc5ec24	0.006040113
74	0xbc1beaa5	-0.009516393
75	0x3a8ea1d8	0.0010881973
76	0xbbd5bbdf	-0.00652264
77	0x3b834c56	0.0040069027
78	0xbc254a7e	-0.010088561
79	0x3b533dd9	0.003223291
80	0x3b929aad	0.004474005
81	0x3a5f5168	0.00085189054
82	0x3c63e9d6	0.013910731
83	0x3c35d5a8	0.011098303
84	0xbaba96cd	-0.0014235616
85	0xbc4c297a	-0.012461061
86	0xbb8caa38	-0.0042927526
87	0x3bc42ec5	0.0059870207
88	0x3acbf06f	0.0015559326
89	0xbbfdcd9c	-0.007745458
90	0xbb9e4e06	-0.0048310785
91	0x3a690e5f	0.0008890386
92	0xba3b2e42	-0.0007140377
93	0xba231bfb	-0.0006222126
94	0x3bac9280	0.0052664876
95	0xbc3854fb	-0.01125073
96	0xbb95fa64	-0.004576968
97	0x3c346ab9	0.011011773
98	0xbbec6e43	-0.0072152927
99	0xbbbcc33f	-0.00576058
100	0xbaf21f52	-0.0018472469
101	0x3a51d679	0.0008004676
102	0xbbc70dde	-0.006074651
103	0xbaab7adf	-0.0013082883
104	0xbc08f72f	-0.008359714
105	0x3a83900e	0.0010037438
106	0xbb4a8a70	-0.003090527
107	0xbb0642c2	-0.0020486568
108	0x3ad05511	0.0015894492
109	0x3bfae417	0.007656585
110	0xbbd3505f	-0.00644879
111	0xbac5a19f	-0.0015078074
112	0xbb0ea99a	-0.002176857
113	0xbb343704	-0.0027498612
114	0x3953ca03	0.00020197783
115	0xbb319686	-0.0027097776
116	0x3b604a4d	0.0034223974
117	0x3c8289be	0.015934821
118	0xbb6ca8bf	-0.0036111323
119	0xbab1f81d	-0.0013577972
120	0x3bac7f99	0.0052642343
121	0x3b11bc80	0.00222376
122	0x3bf33b21	0.00742282
123	0xbb587be3	-0.0033032827
124	0x3bf23dd9	0.0073926267
125	0x3bc4ab6f	0.006001882
126	0xbc1b4b1b	-0.009478356
127	0xbbdc9767	-0.0067319158

bn2.running_mean f4 [128]
0	0xbe4043a3	-0.18775801
1	0xbe9aec05	-0.30258194
2	0x3f2198dc	0.6312387
3	0xbdedfcd7	-0.11620491
4	0xbe2dec50	-0.16984677
5	0x3def9071	0.11697472
6	0xbc0e5f49	-0.00868971
7	0xbe054b7e	-0.13017079
8	0xbcc39fa3	-0.023879832
9	0xbe73743e	-0.23774812
10	0xbe31e087	-0.17370807
11	0xbe9eabd2	-0.30990463
12	0x3cf0754f	0.029352812
13	0xbed9febb	-0.42577156
14	0xbe801a3d	-0.25020018
15	0xbe8b6d99	-0.27232054
16	0xbdde92c9	-0.10867841
17	0x3ed0cb6c	0.407802
18	0xbf1a1526	-0.6018852
19	0xbe379332	-0.17927244
20	0x3f2651d7	0.6496863
21	0x3eabbd12	0.33542687
22	0x3d8c1a86	0.068409964
23	0xbe07450b	-0.13209932
24	0xbd9b3a1e	-0.07579444
25	0x3e3f5505	0.18684776
26	0xbdb7f524	-0.08982304
27	0xbe3283ab	-0.1743304
28	0xbdc1cff2	-0.094634905
29	0xbe65444e	-0.22389337
30	0xbed00cef	-0.40634868
31	0xbdb2bb43	-0.087271236
32	0x3e1fec11	0.15617396
33	0x3da87bb6	0.08226721
34	0xbe6e497d	-0.23270221
35	0xbebc067b	-0.36723694
36	0x3ec1f64e	0.37883228
37	0xbc0df26d	-0.008663756
38	0xbe216849	-0.15762438
39	0xbeef5463	-0.4674407
40	0xbe05aa8f	-0.13053344
41	0x3eac0198	0.33594966
42	0xbe7056a7	-0.23470555
43	0x3f1213d5	0.5706151
44	0x3e9c58bf	0.30536458
45	0x3ec5b401	0.38613895
46	0x3d9206ea	0.07130225
47	0xbcc408d3	-0.023929989
48	0x3d0340fa	0.03204439
49	0xbdee1f01	-0.11627007
50	0xbecd125e	-0.40053076
51	0x3e52e7e1	0.20596267
52	0xbe768906	-0.24075708
53	0x3dd2738a	0.102759436
54	0xbea3b11b	-0.31971058
55	0x3f0cedb8	0.5505023
56	0xbdbde419	-0.09272022
57	0xbe8d59e0	-0.27607632
58	0x3dd216c4	0.102582484
59	0x3e69ca7a	0.22831145
60	0x3e3b5db2	0.1829746
61	0xbe9aadf5	-0.30210844
62	0x3e278c0d	0.16362019
63	0x3e5cae2b	0.21550815
64	0xbeb4b52a	-0.35294467
65	0x3e173ae1	0.14768554
66	0x3d88a008	0.066711485
67	0xbe879e82	-0.2648812
68	0xbd98dfe5	-0.074645795
69	0x3de7ed57	0.11324566
70	0xbe1b89a4	-0.15189224
71	0x3dbeb1f8	0.093112886
72	0x3e10b0ff	0.14130019
73	0x3f26d2e2	0.6516553
74	0xbdcde26b	-0.100529514
75	0xbef682e5	-0.4814674
76	0x3dc0cc69	0.09413988
77	0xbead5013	-0.33850154
78	0x3ee23495	0.44180742
79	0xbed2200f	-0.41040084
80	0x3ec74890	0.38922548
81	0xbdc429a0	-0.09578252
82	0x3ece2546	0.40262812
83	0xbcfd594d	-0.030926371
84	0xbe4adde4	-0.19811207
85	0xbe905c85	-0.28195587
86	0xbe08c7be	-0.13357446
87	0xbd77effb	-0.060531598
88	0xbdc8cba1	-0.09804464
89	0x3e3b2151	0.18274428
90	0x3c577b16	0.013151905
91	0xbeef2418	-0.46707225
92	0x3d7d5bee	0.06185525
93	0x3ef23ce5	0.47312084
94	0xbe3d6a67	-0.1849762
95	0xbe4b2e65	-0.19841917
96	0x3e3de329	0.18543686
97	0x3db2e704	0.08735469
98	0xbf2d4ad6	-0.67692316
99	0x3dcf0003	0.10107424
100	0xbe635507	-0.22200404
101	0xbc196d44	-0.00936443
102	0x3d87f350	0.06638205
103	0xbe04ac00	-0.12956238
104	0xbd150b24	-0.036387578
105	0xbd53a0f8	-0.051667184
106	0xbe8a5fab	-0.27026114
107	0xbd196b8c	-0.03745608
108	0xbe76fe8f	-0.24120544
109	0xbc98bd51	-0.01864496
110	0xbe7f6f80	-0.24944878
111	0x3dfe8162	0.124270216
112	0xbdc07975	-0.09398166
113	0xbdac1a02	-0.08403398
114	0x3e1543c8	0.14576638
115	0xbe0c85ec	-0.13722962
116	0xbeb32a4d	-0.3499321
117	0xbeef5e84	-0.46751797
118	0xbebc642b	-0.36795172
119	0xbdacca6e	-0.08437048
120	0x3dd7259d	0.10505221
121	0xbe2724a3	-0.1632257
122	0xbe430ab0	-0.19047046
123	0x3e4ceb70	0.20011687
124	0x3e9a7f30	0.3017516
125	0xbd07fe00	-0.033201218
126	0xbe279f32	-0.16369322
127	0xbd947f50	-0.072508454

bn2.running_var f4 [128]
0	0x3e607e14	0.21923095
1	0x3e3b30d8	0.18280351
2	0x3e228ec5	0.15874775
3	0x3dc241cd	0.09485207
4	0x3e1c30c5	0.15252979
5	0x3e22b5ab	0.15889613
6	0x3e30f573	0.17281131
7	0x3e73de7c	0.2381534
8	0x3e8efac2	0.27925688
9	0x3ea356a7	0.31902048
10	0x3e274302	0.16334155
11	0x3e97c153	0.29639682
12	0x3eaf73f6	0.3426816
13	0x3e93045d	0.28714266
14	0x3e2cd834	0.1687935
15	0x3e0cd022	0.13751271
16	0x3e671b04	0.225689
17	0x3e0f2a69	0.13981022
18	0x3e03c605	0.12868507
19	0x3e95741b	0.29190144
20	0x3e9b071d	0.30278865
21	0x3e951f1e	0.29125303
22	0x3e08c1c1	0.13355161
23	0x3dd28301	0.10278893
24	0x3ebe52f8	0.37172675
25	0x3e3147c1	0.17312528
26	0x3df51a1e	0.11967872
27	0x3e65b811	0.22433497
28	0x3e058e44	0.13042551
29	0x3e961684	0.29314053
30	0x3e374bea	0.17900053
31	0x3e163caa	0.14671579
32	0x3da28595	0.07935635
33	0x3ded5d8b	0.115901075
34	0x3e33e6f8	0.17568576
35	0x3dfc875d	0.12330506
36	0x3e098be2	0.13432267
37	0x3e07b362	0.13252023
38	0x3e649441	0.2232218
39	0x3e0020cf	0.12512515
40	0x3e4cd33d	0.20002456
41	0x3e1985ce	0.14992449
42	0x3e5b1106	0.21393213
43	0x3e3f810b	0.1870157
44	0x3e1570d7	0.14593826
45	0x3e0fea02	0.1405411
46	0x3e1417b5	0.14462169
47	0x3e853abc	0.26021373
48	0x3e2715e7	0.16316949
49	0x3e92b495	0.28653398
50	0x3e62061e	0.22072646
51	0x3e0f1261	0.13971855
52	0x3eeea21e	0.4660806
53	0x3e02008f	0.12695526
54	0x3e3c96a4	0.1841684
55	0x3e848939	0.25885943
56	0x3e67f2bd	0.22651191
57	0x3e49416a	0.1965386
58	0x3e580d35	0.21098788
59	0x3ec1c467	0.37845156
60	0x3e21c9cd	0.15799637
61	0x3e957738	0.2919252
62	0x3e9e5965	0.30927578
63	0x3e1093f4	0.1411894
64	0x3e5bab0a	0.21451965
65	0x3e5db80c	0.2165224
66	0x3e547f4b	0.20751683
67	0x3e4b8ac1	0.19877149
68	0x3e043be5	0.12913473
69	0x3ea589cc	0.32331693
70	0x3ec324a2	0.38113886
71	0x3e19a194	0.15003043
72	0x3eaeab49	0.34115055
73	0x3e200e28	0.156304
74	0x3e66783c	0.22506803
75	0x3e715846	0.2356883
76	0x3e2e5018	0.17022741
77	0x3e938644	0.28813374
78	0x3eb412ee	0.35170692
79	0x3e9fb3a9	0.31191757
80	0x3e3c44ca	0.18385616
81	0x3ec7df6b	0.39037642
82	0x3e81323d	0.2523364
83	0x3e450cb5	0.19243129
84	0x3e1ef1cd	0.15521927
85	0x3de97656	0.11399524
86	0x3e4ed49f	0.20198296
87	0x3e0f005e	0.13964984
88	0x3e4ac699	0.19802321
89	0x3ef02b8c	0.46908224
90	0x3e875e59	0.2643917
91	0x3e94bed3	0.29051837
92	0x3e012eb5	0.12615474
93	0x3e5ee50c	0.21767062
94	0x3e15edf0	0.14641547
95	0x3e5e7265	0.21723326
96	0x3e8dd986	0.2770502
97	0x3e167626	0.14693508
98	0x3e2bc460	0.1677413
99	0x3e4794b8	0.19490325
100	0x3db3ac0b	0.08773049
101	0x3e215011	0.15753199
102	0x3debdd9d	0.11516879
103	0x3e2e17dc	0.17001289
104	0x3e02ca3d	0.1277246
105	0x3de359d3	0.11101117
106	0x3e94dbea	0.2907403
107	0x3e0ab633	0.13546066
108	0x3e4fee16	0.20305666
109	0x3e29291d	0.1651959
110	0x3e0a356c	0.13496941
111	0x3ec1930a	0.37807494
112	0x3e4102d9	0.18848743
113	0x3de4ab70	0.111655116
114	0x3decc0b8	0.11560196
115	0x3e2b6109	0.16736235
116	0x3e962248	0.2932303
117	0x3e9c3919	0.30512312
118	0x3e1ff8ab	0.15622203
119	0x3e052d9a	0.13005677
120	0x3e4a428d	0.1975195
121	0x3e29d545	0.16585262
122	0x3dbc9c11	0.09209455
123	0x3ee1ff47	0.44140074
124	0x3eb2a659	0.34892538
125	0x3e2d6f12	0.16936901
126	0x3e6b369e	0.22970054
127	0x3db8f213	0.09030547

fc.weight f4 [2, 128]
0	0xbd2cb818	-0.042167753
1	0xbd938105	-0.07202343
2	0xbd0965d2	-0.03354437
3	0x3d2fbc91	0.04290444
4	0x3d99e264	0.07513884
5	0x3d3cb75d	0.046073306
6	0x3da10bfa	0.078636125
7	0xbd27b974	-0.040948346
8	0xbcdbc1da	-0.026825834
9	0x3c3444fe	0.011002777
10	0xbd1665f8	-0.03671834
11	0x3b97f6fc	0.004637597
12	0xbd1ca212	-0.0382405
13	0xbdb3da80	-0.0878191
14	0x3d2f6e8f	0.042830046
15	0xbd976337	-0.073919706
16	0x3af213b5	0.0018469008
17	0xbcee0369	-0.02905436
18	0xbccfb197	-0.025353236
19	0x3d79ea31	0.061014358
20	0xbd1d890d	-0.03846078
21	0x3d45ccac	0.048290893
22	0xbd37b447	-0.04484966
23	0x3d54560a	0.051839866
24	0x3d802aac	0.06258139
25	0xbd2bb775	-0.041923005
26	0xbd9d78d9	-0.076890655
27	0xbd60df1b	-0.05490027
28	0xbd860db0	-0.065455794
29	0xbd8ae9ca	-0.06782873
30	0xbd22d02a	-0.039749302
31	0x3da43916	0.08018701
32	0x3caea54e	0.021319058
33	0xbd70204b	-0.058624547
34	0x3d6a5078	0.057205647
35	0x3d81a124	0.06329563
36	0xbd99e1ea	-0.07513793
37	0xbd844acc	-0.06459579
38	0xbd333032	-0.043747135
39	0xbd057167	-0.032578852
40	0x3d8a9384	0.067664176
41	0x3d745151	0.059647862
42	0x3c92c9e8	0.017918542
43	0xbb2f9ff8	-0.002679823
44	0x3d4bd497	0.04976329
45	0x3d54cac1	0.051951174
46	0xbd0a3c6d	-0.033749033
47	0xbd899fc4	-0.06719926
48	0xbd3184a8	-0.0433394
49	0x3d8be423	0.06830623
50	0xbd89b9d4	-0.06724897
51	0x3d8670e6	0.065645024
52	0xbd9ea422	-0.077461496
53	0x3c2d54e3	0.010579321
54	0xbd800348	-0.06250626
55	0x3bf1de57	0.0073812413
56	0xbd9e77fb	-0.07737728
57	0x3d460a84	0.048349872
58	0xbda60e11	-0.08108152
59	0x3d8f4746	0.06996016
60	0xbd82ba86	-0.06383233
61	0xbd089ce5	-0.03335275
62	0x3c7148da	0.014726842
63	0xbd44bef6	-0.048033677
64	0x3ccc3fbd	0.024932737
65	0x3d992146	0.074770495
66	0xbd8ea94e	-0.06965886
67	0x3d5f1db7	0.054471698
68	0x3d8194fd	0.063272454
69	0x3c8fdd8d	0.017561698
70	0xbc20ffd1	-0.009826616
71	0x3d2f94d4	0.042866543
72	0x3dab6820	0.0836947
73	0xbd93dd90	-0.07219994
74	0xbcedd9b6	-0.029034477
75	0x3d2d3e0b	0.042295497
76	0xbabe8e1a	-0.0014538199
77	0xbcc88d3d	-0.02448141
78	0xbd8a331c	-0.067480296
79	0xbd7b388f	-0.061333235
80	0x39c61504	0.0003778116
81	0xbbdcace6	-0.0067344783
82	0x3d7b6777	0.06137797
83	0xbd8842e3	-0.06653383
84	0xbda6915b	-0.08133193
85	0x3d4d5494	0.050129488
86	0x3d5c3cf1	0.053769056
87	0xbda62de4	-0.08114222
88	0x3c8c84c2	0.017153148
89	0xbd9cabb8	-0.0764994
90	0x3ce11490	0.027475625
91	0xbda03189	-0.07821948
92	0x3d535a22	0.05159963
93	0x3c585336	0.013203433
94	0xbd9734d2	-0.073831216
95	0xbb0b0cce	-0.002121735
96	0x3d4ed737	0.050498214
97	0xbdbe39c8	-0.09288365
98	0x3d776f92	0.060409136
99	0x3d73d558	0.059529632
100	0x3db1721a	0.08664341
101	0xbd19be62	-0.03753508
102	0x3d6c6b85	0.057719726
103	0x3d0809e4	0.033212557
104	0xba0504b6	-0.00050742493
105	0x3ccb5c08	0.024824157
106	0x3d2ab187	0.04167321
107	0xbcdcabdc	-0.026937418
108	0x3c8b3e02	0.016997341
109	0xbd6c25f9	-0.0576534
110	0x3d7b97d5	0.061424095
111	0x3ceaabe7	0.028646423
112	0x3da344e5	0.07972125
113	0x3d4e1429	0.050312195
114	0x3bfb1066	0.007661867
115	0xbc96a976	-0.018391352
116	0x3d1a496b	0.037667673
117	0xbda0cf8f	-0.07852089
118	0x3d383367	0.044970896
119	0x3cb0cf3f	0.021583198
120	0xbca4e562	-0.02012891
121	0xbd9e51ee	-0.077304706
122	0x3d37ed56	0.044904076
123	0xbcffe8b5	-0.031238893
124	0xbdc9dc3d	-0.0985646
125	0xbd226516	-0.039647184
126	0x3d8f4ae3	0.069967054
127	0x3d37a307	0.04483321
128	0xbd4824e2	-0.0488633
129	0x3b5b5a05	0.0033470404
130	0xbd177a87	-0.036982086
131	0x3c988115	0.018616239
132	0xbd92ea06	-0.07173543
133	0xbca50f5e	-0.02014893
134	0x3c9c23fa	0.019060124
135	0xbd82bded	-0.06383882
136	0x3d7a9b2d	0.061183143
137	0x3d867e43	0.06567051
138	0xbc05efaf	-0.008174821
139	0x3d4ea865	0.050453562
140	0x3d8d7fa3	0.069091104
141	0x3cc0cf94	0.023536481
142	0xbd9ae248	-0.07562691
143	0x3d729782	0.05922652
144	0x3c482037	0.012214712
145	0xbcd82c14	-0.026388206
146	0xbceeaddd	-0.029135639
147	0x3d675882	0.056480892
148	0xbbfc544d	-0.007700479
149	0xbd9b6e39	-0.07589383
150	0x3d602961	0.054726962
151	0x3d18a0f5	0.037262876
152	0xbd3905f1	-0.04517168
153	0xbd2d1e89	-0.04226545
154	0xbd1298dd	-0.035790313
155	0x3d05ef6d	0.032699037
156	0x3da42a97	0.08015936
157	0x3ce52a0a	0.027974147
158	0x3db80619	0.08985538
159	0xbc40725b	-0.0117460145
160	0xbc04644b	-0.008080552
161	0xbd4fa499	-0.050694082
162	0xbd9c79f9	-0.07640452
163	0x3da3ac05	0.079917945
164	0xbd91450a	-0.07093246
165	0x3d3909ab	0.045175236
166	0x3bd4c711	0.006493457
167	0x3d09f189	0.03367761
168	0x3b08794a	0.0020824247
169	0x3dab71b8	0.083712995
170	0xbcd938d2	-0.026516352
171	0x3cc4b6f6	0.024013024
172	0x3ce3dae7	0.027814342
173	0x3d14a636	0.036291324
174	0x3da57e18	0.08080691
175	0x3dbcc3fb	0.09217068
176	0xbbd42dd3	-0.0064751892
177	0x3ce346b9	0.027743684
178	0xbdaa114b	-0.083040796
179	0xbbdedf58	-0.006801527
180	0x3d0390a0	0.032120347
181	0xbd51329c	-0.051073655
182	0xbd0ce189	-0.034394775
183	0x3cbe051a	0.023195792
184	0x395994c0	0.00020750146
185	0x3d8ae07b	0.067810975
186	0x3d3aeae8	0.04563418
187	0xbd55e320	-0.052218556
188	0x3d388c23	0.04505552
189	0x3d554415	0.05206688
190	0x3755c55c	1.2741741e-05
191	0xbc55b70f	-0.013044133
192	0x3d215b91	0.039393965
193	0x3d73a2a9	0.059481297
194	0xbca33b94	-0.01992587
195	0xb96fcfc6	-0.00022870218
196	0x3d21c096	0.039490305
197	0xbdaa73c0	-0.08322859
198	0xbcefbd77	-0.029265149
199	0xbc9fb12b	-0.01949366
200	0x3d6ab302	0.05729962
201	0x3da80303	0.082036994
202	0xbcf3ae0f	-0.029746084
203	0xbc8f701b	-0.01750951
204	0xbd1ea6c3	-0.038733255
205	0x3da4a377	0.08038991
206	0xbd9e967e	-0.07743548
207	0x3d719256	0.058977447
208	0x3d918136	0.07104723
209	0x3ce9ca13	0.02853874
210	0x3db7924b	0.0896345
211	0xbcc78e73	-0.024359917
212	0x3d1794b7	0.03700706
213	0x3d24f3c0	0.04027152
214	0xbc42fdac	-0.0119013
215	0x3dac50d2	0.08413853
216	0x3d587774	0.052848294
217	0xbd9ecfe6	-0.07754497
218	0xbd90a1f3	-0.07062139
219	0xbd811067	-0.063019566
220	0x3cb06eb4	0.021537162
221	0x3d6a83d0	0.057254612
222	0x3cbf6363	0.023362821
223	0xb9ed7bf3	-0.00045296512
224	0xbd30cadb	-0.043162208
225	0xbd0393f6	-0.03212353
226	0xbcb74b30	-0.02237472
227	0x3c852b55	0.016256014
228	0x3d7a8582	0.06116248
229	0xbc9d8cda	-0.019232202
230	0x3b9e18fa	0.004824755
231	0x3d913050	0.07089293
232	0xbc55c4b9	-0.013047391
233	0xbb4a695c	-0.0030885553
234	0xbd51c3e5	-0.05121221
235	0xbc22fce2	-0.009947987
236	0x3d627bf9	0.05529401
237	0x3d07fd61	0.033200625
238	0x3d1b4554	0.037907913
239	0xbd3d0185	-0.046144027
240	0xbda84dcd	-0.08217964
241	0xbd9c315f	-0.07626604
242	0x3d9ee293	0.07758059
243	0xbd629ca2	-0.055325158
244	0x3d8821ed	0.06647096
245	0xbc16eb25	-0.009211336
246	0x3db1a646	0.08674292
247	0xbda2fb34	-0.079580694
248	0x3d025c9e	0.031826608
249	0x3d2a9a89	0.041651282
250	0x3d8f0f98	0.06985396
251	0xbda803ed	-0.08203874
252	0x3d988596	0.074473545
253	0x3d360bae	0.044444732
254	0x3d806288	0.06268793
255	0x3d40715f	0.04698312

fc.bias f4 [2]
0	0xbd2ad30f	-0.041705187
1	0xbadfaca0	-0.0017064996
